Main Code/dnn_model.pth (torch, 39653 bytes, 6 tensors)

fc1.weight f4 [64, 126]
000000 61 06 c2 bd 62 fc 0e 3d 5c f0 8b 3d 1b 94 e8 3d
       -0.09473873 0.03490866 0.06832954 0.11356374
000010 bf b4 a6 bd 95 63 a2 bd 12 99 92 3d 16 33 d9 bc
       -0.08139943 -0.0792915 0.07158102 -0.026513617
000020 04 54 52 bd 56 b2 d2 bc 49 18 4c 3c ff 64 90 3d
       -0.051349655 -0.025719803 0.012456962 0.070505135
000030 4b 23 df 3a 0a a8 6f bb 32 2a 36 be 38 48 9b bd
       0.0017024068 -0.0036568665 -0.17789534 -0.07582134
000040 dd 0b 0b be c5 05 d5 3d 64 a2 c6 3c 96 8c c5 bd
       -0.13578744 0.10401491 0.024247356 -0.09645955
000050 a4 db 7c 3d 66 fb 9a bb 76 5d c4 bd 90 cb 98 bd
       0.061732903 -0.004729676 -0.09588139 -0.074607015
000060 e4 16 3e 3d 4e 34 37 bc 22 fb b1 3c 50 6b 81 bd
       0.04640855 -0.011181904 0.021726195 -0.06319296
000070 c2 00 0c bd cb 65 ef bc a8 a6 3c 3d f6 0a a8 3c
       -0.03418041 -0.029223343 0.046057373 0.02051304
000080 bc 89 90 3d e3 4a f6 bc d1 37 c6 3d e7 c3 c5 3d
       0.07057521 -0.030065006 0.09678615 0.09656506
000090 32 81 cd 3d 2e 14 2e 3d 01 3b 47 3d 25 98 0a 3c
       0.10034408 0.042499714 0.048640255 0.008459126
0000a0 c8 3f 3b bc 86 cf e7 3c d0 8e 53 ba 67 2d 91 3d
       -0.011428781 0.028297197 -0.0008070292 0.07088738
0000b0 55 4f 08 3d 5b 4a 06 3d 29 ea 87 bd 32 18 30 bd
       0.033278782 0.032785755 -0.066364594 -0.042991824
0000c0 ee 4f 88 3d a1 57 8c 3d e0 af ad bd 33 e3 59 bc
       0.066558704 0.068526514 -0.08480811 -0.013298797
0000d0 4a f6 89 bd f3 60 85 bd 4f b8 53 3d 98 0f 75 3d
       -0.06736429 -0.06512632 0.051689442 0.059829324
0000e0 ec 50 71 3d d8 04 94 3d 6d c7 9b 3d 25 83 4e bd
       0.058915064 0.07227486 0.07606397 -0.050418038
0000f0 68 96 19 3d ab 94 c0 3d ce 2a 54 bd e0 b6 6e bc
       0.037496954 0.09403356 -0.051798634 -0.014569968
000100 81 d8 12 bd a9 8f bb bd 69 b4 a3 bd 38 d6 85 bd
       -0.035851005 -0.091582604 -0.07993395 -0.065349996
000110 a7 5e 9f bc dd 11 82 bc 5e a5 be bc de 8c b0 bd
       -0.019454313 -0.015877659 -0.023272213 -0.08620618
000120 d0 37 95 bd ab a9 86 3d 55 4a 08 bc 00 c1 0d bd
       -0.07286036 0.0657533 -0.008318503 -0.034607887
000130 a6 d4 1a 3d 8c 6e 89 bc d1 99 bf 3c 34 a0 ce 3d
       0.037800454 -0.016776346 0.023388775 0.1008915
000140 42 1d c9 3d 0e 3f 95 3c cb e1 51 bd 89 df 7b 3d
       0.098200336 0.018218543 -0.051240724 0.061492477
000150 07 dc 0b be 3c 90 61 3c 35 2b 43 3d 2a 15 fa 3d
       -0.13658153 0.013767298 0.047648627 0.12211068
000160 f2 fb 6d 3c 26 4c ef bc db 50 a5 bd 4e 1e df bd
       0.0145254005 -0.029211115 -0.080720626 -0.10894452
000170 17 48 11 39 e4 f9 c1 bc a3 36 0f bc 13 e8 24 bd
       0.00013855133 -0.023678727 -0.008741054 -0.040260386
000180 8b 7a 8d 3b 9c ef 24 3c 94 51 93 bc 1c bb 75 bc
       0.004317587 0.010066893 -0.017983235 -0.014998224
000190 81 ef 2d bd 5e 24 61 3c 14 89 fd 3a e6 18 05 bd
       -0.042464737 0.013741581 0.0019343221 -0.032494448
0001a0 37 78 56 3d 54 9a 22 3d 5d e7 09 3b ce 2f f7 bc
       0.05236074 0.03969796 0.0021042444 -0.030174162
0001b0 2e 57 70 bd f2 85 b3 3c ab b6 d0 bc 7c 46 78 3d
       -0.05867689 0.021914456 -0.025477728 0.060614094
0001c0 c0 40 98 3d 76 8e f8 3c 70 12 ad bd 65 f5 c6 3d
       0.07434225 0.030341368 -0.08450782 0.09714774
0001d0 3e 7a e3 bb 59 29 b4 3d 3b 68 00 3d d4 b0 05 be
       -0.0069420626 0.08796949 0.031349402 -0.13055736
0001e0 ea 87 af bb ff 7a 64 3d cb 5f 45 3d ae e5 ba 3b
       -0.0053567784 0.05578136 0.04818706 0.0057036495
0001f0 2a 53 8c 3d 24 cc 3b bd 06 56 58 3d 2c 3f ac 3c
       0.068518 -0.04584898 0.052816413 0.021026216
000200 bc 35 5d bd a6 4d 96 3d c3 b1 79 bd 8f 2f 77 3d
       -0.054006323 0.07339029 -0.060960542 0.06034809
000210 7c 89 ce bc c6 f5 1c 3d ee 38 d3 bb 26 56 3b 3d
       -0.025212042 0.038320325 -0.0064459955 0.045736454
000220 ea d5 88 bd 19 72 33 3d 4f df c0 bd f7 b2 7d 3d
       -0.06681426 0.043809984 -0.09417593 0.061938252
000230 f6 b1 9c bd d8 98 b8 bc 1e a8 a3 3c b7 ba f4 bb
       -0.07651131 -0.02253382 0.019977625 -0.007468547
000240 ac 8a 8c 3d f7 2d 85 3d d7 d4 83 bc ae a1 88 3d
       0.06862387 0.06502908 -0.0160927 0.06671463
000250 6e 3d 53 bd 11 d7 73 bd 4f 13 e8 bc a5 18 83 3d
       -0.051572256 -0.059531275 -0.02832952 0.06401185
000260 2f 02 15 bd 30 1a 68 bd 3c b7 db bd 03 0f ae 3d
       -0.036379036 -0.0566656 -0.107283086 0.08498957
000270 dc a5 5e 3d 48 ad 00 bd 22 d1 3f 3c 5b c7 92 bc
       0.054357395 -0.031415254 0.011707576 -0.017917326
000280 24 e3 df bc d1 a1 88 3d cd 4c bf bd 90 8a c8 bc
       -0.027329989 0.06671489 -0.093408205 -0.024480134
000290 18 af cb bd 23 e1 90 3d cf 86 17 bc c2 3a 12 3d
       -0.09945506 0.070741914 -0.0092484495 0.035700567
0002a0 9e 52 cc 3c 52 6b 97 3d af 4c cf 3c 6e b4 59 3d
       0.024941739 0.073935166 0.02530512 0.053150587
0002b0 1a 2a 95 bd fc 16 6c 3c 62 4e ff 3c 88 b7 96 bd
       -0.07283421 0.014409777 0.031165306 -0.073592246
0002c0 54 7c 81 3c f6 8a a4 3d 89 f8 dd 3d 2e 18 11 3d
       0.015806355 0.08034317 0.1083842 0.03542345
0002d0 34 05 50 bd 3f d1 6b bd 1c 3c 14 bc 14 4e 41 3c
       -0.050786212 -0.0575726 -0.009047534 0.0117984
0002e0 28 1f 2a 3d ca 7d a7 3d af a8 65 3d b5 27 75 3d
       0.04153362 0.08178289 0.056069072 0.05985232
0002f0 ce 5d 30 3c 2c d0 a9 bd 4d c4 55 3c dc 87 bf 3d
       0.010764552 -0.08291659 0.01304729 0.09352085
000300 91 8b c7 3c 63 4d 18 3d da 3e 96 bd 32 02 8c bd
       0.024358543 0.037183177 -0.07336207 -0.06836356
000310 1b 2e 96 3b 7b 81 c7 3c 01 56 a0 bc 93 23 bd 3d
       0.004583133 0.024353733 -0.01957226 0.09235301
000320 97 5c 80 bd f7 1c 69 bc 4d 3f 82 3c 35 b1 2f 3c
       -0.0626766 -0.014228097 0.015899325 0.010723402
000330 0a d1 70 bc 01 16 74 3d 16 6f 52 bd 41 09 99 3d
       -0.014698276 0.059591297 -0.05137547 0.07472468
000340 12 52 14 3d 77 a0 8a 3d 8f 86 2b 3d a1 96 e1 bd
       0.03621108 0.067688875 0.041876372 -0.11015058
000350 8d 4b 7a ba d6 9f 25 3d eb 3a bb bd 16 54 74 3d
       -0.0009548001 0.040435635 -0.09142097 0.059650503
000360 83 8a 52 bd 18 11 8c bd c4 d1 22 bd 75 47 b3 bd
       -0.051401626 -0.06839198 -0.03975083 -0.08753864
000370 de 7a d1 3d e5 d7 4a 3d ea cb 8a bc 99 f6 a2 bd
       0.10228513 0.0495223 -0.016942937 -0.07957191
000380 9c 6e 95 3d 6f fa 9c bd 93 00 bc 3d ec f3 4d bd
       0.07296488 -0.07664954 0.09179797 -0.05028145
000390 7e 5b c5 3d de 63 7c bd 2d 91 19 3d c3 7f 54 3d
       0.096365914 -0.06161868 0.037491966 0.051879656
0003a0 d1 44 10 3d 78 e5 88 3d 20 6b ba bb 7c 59 86 bb
       0.03522188 0.06684393 -0.00568904 -0.004100023
0003b0 2a a0 44 3d e1 4e 70 3d f7 6f ef bc 8e b2 09 3d
       0.048004307 0.058668975 -0.029228194 0.03361755
0003c0 b4 b4 2f 3d 02 25 58 bd ce 4e d4 bd 5f 9b b1 bd
       0.04289694 -0.05276967 -0.10366593 -0.08672213
0003d0 0a ca 8f 3a de 9f 29 bd d0 ad de bc 00 53 62 3c
       0.0010970247 -0.041412227 -0.02718249 0.013813734
0003e0 5e e5 97 3b 38 b8 00 3d 77 c3 d8 3c e8 9b 9b 3d
       0.004635497 0.031425685 0.026460392 0.07598096
0003f0 b2 eb cc 3d 17 bc 5c bd 14 4c ac ba de 29 82 3d
       0.10005893 -0.053890314 -0.0013145232 0.06355642

fc1.bias f4 [64]
000000 d5 f4 4a bc 16 db 0b bc 7e f7 26 3d 7f 9c 43 bc
       -0.012387474 -0.008536121 0.04076337 -0.011939167
000010 d7 26 24 bd 41 27 9d 3d 8d 1c 45 3d 82 4f 41 3d
       -0.040076103 0.07673503 0.04812293 0.047194965
000020 d2 cd f9 3b e4 34 bd 3c 9c 7e 7f bd 05 6a 7b 3d
       0.0076234126 0.02309651 -0.062376603 0.061380405
000030 6c 6f a4 bc 09 b0 ae 3d 55 82 a3 3d 90 16 62 3c
       -0.020072661 0.0852967 0.07983843 0.013799325
000040 54 33 ef 3d b1 bb 13 3d 9e b6 df 3d e0 de b6 bd
       0.11679712 0.03606767 0.10923503 -0.08929229
000050 7e 54 5b 3c 63 40 e7 bc c9 b9 2f bd 52 1f b1 3c
       0.013386844 -0.028228944 -0.042901788 0.02162138
000060 af 4d f7 bd 1a 4a bd 3d 4c bb 66 bc 1f e4 44 3d
       -0.12075364 0.092426494 -0.014082741 0.048069116
000070 77 c6 e3 bc 47 45 be bc c2 2f eb 3c 3a d8 d0 bc
       -0.027804596 -0.023226393 0.028709296 -0.02549373
000080 41 82 42 bd 27 9c e2 bd f6 bd 77 3c 10 cd 07 3e
       -0.0474875 -0.1106494 0.015120974 0.13261819
000090 97 d2 43 3d 05 44 76 3d 0b 95 4d bc 38 12 db bc
       0.047808256 0.060123462 -0.012547742 -0.026742086
0000a0 81 a6 32 bd 6a 0d 47 3c 17 e0 94 bd a4 c6 fd bc
       -0.04361582 0.012149194 -0.07269304 -0.030978508
0000b0 e0 dc b7 3d 84 90 15 3e 81 d1 23 bc a3 e6 49 bd
       0.089776754 0.1460591 -0.00999868 -0.049292218
0000c0 cc ab ca bc b4 8e d2 3d 6c c0 83 3d 31 e7 59 3d
       -0.024740122 0.10281125 0.06433186 0.053198997
0000d0 aa 59 68 bc 32 d3 85 bc ad c8 15 bd 39 40 82 3d
       -0.014181534 -0.016336057 -0.036568332 0.06359906
0000e0 d1 20 58 3d b5 e3 04 3d c6 33 e1 bc 08 5d c4 3c
       0.05276567 0.03244372 -0.027490508 0.023970142
0000f0 d0 1c 30 3d 07 bd 67 3d bd 77 9d 3d 72 84 8d bd
       0.042996228 0.056576755 0.07688854 -0.069100276

fc2.weight f4 [16, 64]
000000 d9 6d dd bc 02 d6 83 3d 5a 51 ed 3d 2a 99 2c be
       -0.027029919 0.06437303 0.11587782 -0.16855302
000010 f3 76 05 be 4f 81 81 3c 78 a5 d7 3d 4d ba 6d 3d
       -0.13033657 0.01580873 0.105296075 0.058039
000020 52 79 08 3e 3b 2a 11 3e 50 f8 32 3d fa e6 a0 bd
       0.1332753 0.14176266 0.04369384 -0.07856555
000030 4c c9 b3 bc 49 2b 60 3d 17 ba 92 3e 1c 1f 9d 3d
       -0.021946572 0.05472878 0.286576 0.07671949
000040 4a 28 2b bd 7a 37 5b be 94 4f 18 3e ee 41 b8 bd
       -0.04178647 -0.21407881 0.14874107 -0.0899695
000050 64 92 55 bc 12 0f 28 3e ba e7 10 3e 09 36 01 3e
       -0.0130353905 0.16411999 0.14150897 0.12618269
000060 8e 1c 91 bd 07 c8 f4 3c 81 b0 47 3e 46 2e fc bd
       -0.070855245 0.029880537 0.19500925 -0.123135135
000070 70 1b 0a bd 9d 9e ab bd 7c cf 02 3e d5 56 d3 39
       -0.033717573 -0.083798625 0.12774462 0.0004030975
000080 ac b4 ed bd 4c ff 4f be 97 8e 81 3e 5f d1 d3 3d
       -0.11606726 -0.20312232 0.253041 0.10342669
000090 42 be 19 be 4b c8 08 be 5d 87 c1 3d 84 2a d9 3d
       -0.15013984 -0.13357656 0.094496466 0.10603812
0000a0 c8 93 55 bd e9 f1 20 bd 8d 27 fa bd f7 c8 c3 3d
       -0.05214289 -0.039293204 -0.12214575 0.095598154
0000b0 c9 6b e8 bd d1 1a 93 3d 53 5c 30 3e 61 ab e9 bd
       -0.113486834 0.07182849 0.17222719 -0.11409641
0000c0 a7 88 84 3e 07 1c e4 bd 45 92 38 3e 75 d9 51 3e
       0.25885507 -0.11138158 0.18024547 0.2049311
0000d0 e1 f8 01 be a8 4e 3b be a1 b6 2c 3e c1 48 03 3e
       -0.12692596 -0.18291724 0.16866542 0.12820722
0000e0 08 bf 49 3d a7 d4 bd bc db b3 29 be fb 51 1e be
       0.049254447 -0.02317269 -0.16572516 -0.1546096
0000f0 cf 7e ca bd 9d eb 2a be f7 b2 a3 3d 9f 5e 9f bd
       -0.09887468 -0.16691442 0.07993119 -0.077817194
000100 39 2c 08 3e c5 4e f0 bd 04 18 6b 3c 16 d2 3f 3b
       0.1329812 -0.11733774 0.0143489875 0.0029269508
000110 c7 98 f4 3d 2b 2f 19 be b8 e3 54 bd 08 b0 8e 3d
       0.119432025 -0.149594 -0.051974982 0.06967169
000120 5b 20 b2 bd 20 f8 b6 3d e7 7f e2 3c 18 2b ae bd
       -0.086975776 0.08934045 0.02764888 -0.08504313
000130 6e 37 0e be 98 30 40 3e 95 90 94 3e d8 9f 05 3e
       -0.13888332 0.18768537 0.29016557 0.13049257
000140 4b 2d 95 3d c2 3a 35 be 8f 56 ab 3e 03 e0 cc bb
       0.072840296 -0.17698196 0.33464476 -0.00625229
000150 8d 8b 24 3d 8f 29 87 3e 5e 94 d5 3c bc 16 5f be
       0.04017215 0.26398894 0.026071724 -0.21786016
000160 de 5f b7 3c 24 23 b6 3d 50 99 2c 3e a8 cf 14 3e
       0.02238458 0.08893421 0.16855359 0.1453234
000170 fb b2 05 be 64 57 6c be 45 a6 0f 3e 63 d5 41 3e
       -0.13056557 -0.23080212 0.1402827 0.18929057
000180 4b d9 49 be 12 40 1b be df 9c c7 bd c1 5e 08 3e
       -0.19711797 -0.1516116 -0.09746718 0.13317396
000190 96 13 23 bc e7 6b 40 3d 95 05 8f bc 2d 57 32 bd
       -0.0099534 0.046977904 -0.017458716 -0.04354017
0001a0 46 43 b8 bd d2 32 25 bd f2 de 8c be bc bc ad bb
       -0.089972064 -0.04033167 -0.27513844 -0.00530204
0001b0 a7 85 9d bc f4 08 56 3e cd 65 f0 3d 83 6a 43 bd
       -0.01922877 0.20901853 0.11738167 -0.047709
0001c0 d0 c4 b6 3d 44 af 8c 3e 2a 5d 8b 3e e4 e4 a6 bd
       0.08924258 0.27477467 0.27219516 -0.08149126
0001d0 e0 a7 33 be dd 0f fa bd b0 5f 76 3d 27 2b 34 3d
       -0.17544508 -0.12210057 0.06014985 0.043986466
0001e0 20 b6 a6 3e 05 35 02 3e 0e b2 5d bd 08 a2 88 be
       0.32560825 0.12715538 -0.054124884 -0.2668612
0001f0 ea 68 40 bd 7a 7b 0d 3d 35 e9 d6 3d 7c 28 ff bd
       -0.046975054 0.034541585 0.104936995 -0.12458894
000200 1d 80 b2 3b 58 83 35 3d 6c 1a 59 3c 8c 10 46 be
       0.005447401 0.044314712 0.013250928 -0.1934225
000210 9a 67 6e bd d2 9e cc bd 14 98 51 be 00 07 85 bd
       -0.05820427 -0.0999123 -0.2046817 -0.06495476
000220 b0 32 4e 3d bc 5b 0c 3e 8b 72 d9 3d c3 20 29 be
       0.050341308 0.13706869 0.106175505 -0.16516404
000230 35 57 1d bd 62 fc db bd 87 31 c7 bc 6b 91 d9 3d
       -0.038413245 -0.107414976 -0.024315609 0.106234394
000240 b1 bf f7 3d 44 c6 76 be de 01 39 3d dd 16 4a 3d
       0.12097109 -0.2409907 0.045167796 0.04933821
000250 86 31 da bd 40 51 20 3e 33 01 1b be ee 31 d6 bd
       -0.10653977 0.15655994 -0.15137176 -0.10458742
000260 b8 be 8f 3d 2a 1d 32 3e 8b 6c 28 3e 99 db 78 be
       0.070187986 0.17393938 0.16447656 -0.2430252
000270 f4 e1 fc 3d cc 0a 43 3d b2 b5 2a 3e 4f 61 6c be
       0.12347785 0.04761772 0.16670874 -0.23083995
000280 fa 6b 14 be 23 c5 06 be e9 cf 57 bd bd eb 13 3e
       -0.14494315 -0.13161139 -0.052688513 0.14445396
000290 c4 71 87 3d 8c d5 95 3d 49 9a 77 3e 93 f0 8d 3d
       0.06613496 0.073161215 0.24179949 0.069306515
0002a0 57 42 61 3d ba b8 e0 bd 53 a4 88 3d 18 2f 74 bc
       0.054994907 -0.10972734 0.06671967 -0.014903806
0002b0 3e c4 0f 3e bf cc 94 3e db 07 0f 3e 59 78 0e bd
       0.14039704 0.2906246 0.1396784 -0.03478274
0002c0 d2 e5 6a 3d 27 bb 01 be 6e 60 fe 3d 3c 56 61 3e
       0.05734808 -0.12669049 0.12420736 0.22005552
0002d0 8d 80 6c 3d 4a 9c 82 3d fa 96 c4 3d 2d a3 00 be
       0.057739783 0.06377466 0.09599109 -0.12562247
0002e0 a3 dd 45 3c 06 8b 39 3e 08 48 3c be 76 46 5f 3e
       0.012076768 0.1811944 -0.18386853 0.21804222
0002f0 fa 82 82 bd f6 06 bd 3d 93 46 b0 3d 8d 27 0a be
       -0.06372638 0.09229843 0.08607211 -0.1349165
000300 cc 5f 24 be fe 4b 32 be fc c9 8a 3e d2 72 8c bb
       -0.16052169 -0.17411801 0.27107227 -0.0042861486
000310 f2 43 56 bd 04 05 e0 bb e4 7a 84 be f6 f0 b6 3d
       -0.05231089 -0.0068365354 -0.25875008 0.089326784
000320 be ce d7 bd 70 48 84 bd 1a d6 a0 3d 3b e6 20 bd
       -0.1053748 -0.06459129 0.07853337 -0.039282065
000330 d9 c1 35 3d c0 63 db bb 0f 6c 06 3e 2d 92 93 3e
       0.04437432 -0.0066952407 0.13127159 0.2882246
000340 45 58 46 bd f8 7e 18 be 15 45 e3 3d db 7b 01 3d
       -0.048424024 -0.14892185 0.11097161 0.03161226
000350 8c ea ce bd 99 01 41 3d 6b f8 85 3c 85 04 20 be
       -0.1010333 0.047120664 0.016353806 -0.15626724
000360 3d ad 88 3e 66 3c bd 3d 99 ab ac 3d 23 1b aa 3e
       0.2669467 0.09240036 0.08431167 0.3322383
000370 08 34 ec bd e2 3e 7a be 93 df 07 be 2f fe 70 3e
       -0.11533362 -0.2443805 -0.1326888 0.23534463
000380 96 af 33 be 5a b5 f2 bd bd 21 93 bd 24 e9 a1 3d
       -0.1754745 -0.11850996 -0.071841694 0.07905796
000390 06 c4 78 3e 03 f1 f2 3b ba e5 1c bd 07 a8 0d be
       0.24293527 0.0074139847 -0.03830502 -0.13833629
0003a0 59 7a 49 3e d4 20 2c 3e 3e 55 53 be e3 51 25 bd
       0.19675578 0.16809398 -0.20637986 -0.040361296
0003b0 2e 94 95 37 06 40 08 3e b1 e0 51 3d 61 59 41 bd
       1.7831186e-05 0.13305673 0.051239673 -0.04720438
0003c0 38 fa ae bd 92 0c 8b 3e a8 40 32 bd fb 9b 81 be
       -0.08543819 0.27158028 -0.043518692 -0.25314316
0003d0 41 a3 f2 3d 45 62 c4 be 6f 43 3a 3e 28 b3 50 bd
       0.118475445 -0.38356224 0.18189786 -0.050952107
0003e0 90 3f 1f 3c 85 58 cd bd c3 c3 dc 3c 68 86 06 bd
       0.009719744 -0.100266494 0.026948815 -0.032843024
0003f0 20 68 06 3e 8c 9c 38 be d1 f9 77 3d 94 04 5c be
       0.13125658 -0.18028468 0.060540978 -0.21486121

fc2.bias f4 [16]
000000 5d fb 0b bd 33 8f c4 3d 60 ce a0 3d 70 f9 0e 3e
       -0.034175266 0.095976256 0.07851863 0.1396234
000010 0f c0 ad 3d a9 20 7c 3c 4e 50 7c 3d 7b 22 e8 3d
       0.08483898 0.015388646 0.061600022 0.11334702
000020 7a 61 83 bd 06 3e 24 3b e4 20 de bd 0f b1 9e 3d
       -0.064150766 0.0025061383 -0.10846117 0.07748615
000030 2c 52 21 be da 8f b0 3c a5 48 1b be 94 85 28 bd
       -0.15754002 0.021552969 -0.1516443 -0.041143015

fc3.weight f4 [9, 16]
000000 d1 a1 c6 3e ba b8 ec be 3a f1 d2 3d c9 9a 0e be
       0.3879533 -0.46234685 0.102999166 -0.13926233
000010 20 2f 16 bf 31 8e ca ba 30 5a bd be 1e 2b d4 be
       -0.5866566 -0.0015453753 -0.3698287 -0.41439146
000020 66 10 ff 3e 4c 1a bc be 6d 2a b2 3d 14 6b ae 3c
       0.498172 -0.36738813 0.08699498 0.021291293
000030 1a aa c5 be 11 06 c8 bc bf e9 c8 3e b3 12 8b be
       -0.3860634 -0.024416955 0.39240834 -0.27162704
000040 13 de fd 3d 1e 35 c4 3e f1 62 9d be de 2f f9 3e
       0.12395873 0.38321775 -0.3073955 0.48669332
000050 84 a6 8f 3d 7a 3f 3a 3e 99 16 cb 3e 6b 78 0a bf
       0.07014182 0.18188277 0.39665678 -0.54089993
000060 fb eb b5 3e b4 69 11 bf 60 a1 15 3f 89 24 d3 bd
       0.355316 -0.56801915 0.58449364 -0.10309703
000070 5b ae c6 3e 8e 25 9f 3e 9b 6a 6b 3d d6 7b be 3e
       0.38804898 0.3108334 0.057474714 0.37203854
000080 02 62 ac 3e 16 33 c9 3e d4 67 a4 be 00 85 1e be
       0.33668524 0.39296788 -0.32110465 -0.15480423
000090 96 ab 64 3e c2 46 d3 3e d7 04 06 bf ae 5d 30 3e
       0.2233108 0.4126492 -0.52351135 0.17223236
0000a0 d7 eb 6c be 39 49 0b 3d 59 a1 c0 be 15 8d 18 be
       -0.23136841 0.034005377 -0.37623098 -0.14897569
0000b0 41 ac 04 3f 57 35 0c be b9 f6 04 bf 4f 64 13 3f
       0.5182534 -0.13692223 -0.5193897 0.57574934
0000c0 51 00 a5 3e 6b 9b 98 3e ac f5 be 3e dd 33 16 3f
       0.32226804 0.29806075 0.37296808 0.5867289
0000d0 a5 17 df be f5 dd 0b bf 2c 9f 84 bd 54 0a f5 3e
       -0.43572727 -0.54635555 -0.06475672 0.47859442
0000e0 39 36 b4 be 19 81 60 3b d3 f9 b3 3d 0c 03 ae 3e
       -0.3519762 0.0034256636 0.087878846 0.339867
0000f0 e7 66 e2 be 57 f6 67 be 8a 61 86 3b da a7 a7 3e
       -0.44219133 -0.22652565 0.004100983 0.32745248
000100 ad ee b4 be b3 84 cf bd 49 95 16 be 81 4d 3f bc
       -0.35338345 -0.10132732 -0.14705385 -0.011676193
000110 a2 8e d4 3e cc 9a 2f 3e 80 03 06 3f 58 6f 3d be
       0.4151507 0.17148894 0.5234909 -0.18499506
000120 05 c5 00 bf 8d 2d c8 3e 4a ed d4 be 5b 55 a0 be
       -0.5030063 0.39097252 -0.41587287 -0.3131512
000130 88 17 22 bd c6 d6 25 bc 57 4a 61 be 6c f9 91 be
       -0.039573222 -0.010122007 -0.22001015 -0.28510606
000140 ab fb 49 be c7 0a b5 be 1b 1d 2f 3e b5 ea 15 bf
       -0.1972491 -0.35359785 0.17100947 -0.5856126
000150 13 66 fa be 62 77 df 3e 9b c0 cc 3e 6c 74 f2 3e
       -0.48906 0.4364577 0.39990696 0.47354448
000160 46 5a b8 bd a7 38 64 be 13 92 e6 3e 8f 34 9e 3e
       -0.09001593 -0.22287236 0.4503332 0.30899474
000170 15 42 0b 3f e2 0c ba 3e 7a 7b b4 3d 33 01 bb be
       0.5439771 0.36337954 0.08812614 -0.36524352
000180 4a c6 a3 be 8f 93 dc be 8a 69 50 be 26 e4 20 3d
       -0.3198722 -0.43081328 -0.2035276 0.03928008
000190 8b 89 56 be f5 f8 a8 be 44 b4 86 3e 7d d1 46 3d
       -0.20950906 -0.3300244 0.26309407 0.048539627
0001a0 bd a5 52 bd 16 29 cc be c7 e0 be bd 21 a4 02 3f
       -0.05142759 -0.39875096 -0.093202166 0.5103169
0001b0 52 ed bf be 14 3d 1b 3f 0c 50 e1 be da 1d de 3e
       -0.3748575 0.6064007 -0.44006383 0.4338215
0001c0 15 fb f5 3e 8b c2 93 3e 3c e5 f9 3e 08 c9 b4 be
       0.48043123 0.28859362 0.48807704 -0.35309625
0001d0 3f d4 17 3e dd 0a a5 3e 7d d0 0e be bf 78 93 be
       0.14827059 0.3223485 -0.1394672 -0.2880306
0001e0 ad e4 b4 3e ae 35 07 3f cf 3c ec be a3 c4 1a be
       0.35330716 0.52816284 -0.46140143 -0.15114073
0001f0 51 8c 78 be 80 11 2d 3e 02 c9 b1 3d ec a9 d3 be
       -0.24272276 0.16901207 0.08680917 -0.41340578
000200 94 d6 79 3d 52 84 af 3e 30 2d ff 3e f6 72 e6 3e
       0.060995653 0.3428064 0.49839163 0.45009583
000210 5e ed 38 3d f2 73 f7 3d 4b 4d 40 3e a7 c7 00 bf
       0.045148246 0.12082662 0.18779485 -0.50304645
000220 07 21 11 bf 4c d6 79 bd 69 dd 8f 3e 14 52 4b 3e
       -0.5669102 -0.060995385 0.2809861 0.19855529
000230 07 c4 98 3e cb 70 0a bf 24 5b 12 bf e9 1c 41 bd
       0.29837057 -0.5407836 -0.5717032 -0.04714671

fc3.bias f4 [9]
000000 c2 37 93 be 5e a1 a7 bb 20 6e 85 bc 7d b1 a3 3e
       -0.28753477 -0.005115672 -0.016287863 0.3197135
000010 43 89 69 bd 5a 00 fe 3c 8e 44 32 3e fe 79 26 3e
       -0.05701567 0.031006027 0.17408964 0.16257474
000020 d2 88 44 be
       -0.19192818
